SRCNN_BASIC(
  (head): Sequential(
    (0): Conv2d(3, 64, kernel_size=(3, 3), stride=(1, 1), padding=(1, 1))
  )
  (body): Sequential(
    (0): BasicBlock(
      (0): Conv2d(64, 64, kernel_size=(3, 3), stride=(1, 1), padding=(1, 1), bias=False)
      (1): ReLU()
    )
    (1): BasicBlock(
      (0): Conv2d(64, 64, kernel_size=(3, 3), stride=(1, 1), padding=(1, 1), bias=False)
      (1): ReLU()
    )
    (2): BasicBlock(
      (0): Conv2d(64, 64, kernel_size=(3, 3), stride=(1, 1), padding=(1, 1), bias=False)
      (1): ReLU()
    )
    (3): BasicBlock(
      (0): Conv2d(64, 64, kernel_size=(3, 3), stride=(1, 1), padding=(1, 1), bias=False)
      (1): ReLU()
    )
    (4): BasicBlock(
      (0): Conv2d(64, 64, kernel_size=(3, 3), stride=(1, 1), padding=(1, 1), bias=False)
      (1): ReLU()
    )
    (5): BasicBlock(
      (0): Conv2d(64, 64, kernel_size=(3, 3), stride=(1, 1), padding=(1, 1), bias=False)
      (1): ReLU()
    )
    (6): BasicBlock(
      (0): Conv2d(64, 64, kernel_size=(3, 3), stride=(1, 1), padding=(1, 1), bias=False)
      (1): ReLU()
    )
    (7): BasicBlock(
      (0): Conv2d(64, 64, kernel_size=(3, 3), stride=(1, 1), padding=(1, 1), bias=False)
      (1): ReLU()
    )
    (8): BasicBlock(
      (0): Conv2d(64, 64, kernel_size=(3, 3), stride=(1, 1), padding=(1, 1), bias=False)
      (1): ReLU()
    )
    (9): BasicBlock(
      (0): Conv2d(64, 64, kernel_size=(3, 3), stride=(1, 1), padding=(1, 1), bias=False)
      (1): ReLU()
    )
    (10): BasicBlock(
      (0): Conv2d(64, 64, kernel_size=(3, 3), stride=(1, 1), padding=(1, 1), bias=False)
      (1): ReLU()
    )
    (11): BasicBlock(
      (0): Conv2d(64, 64, kernel_size=(3, 3), stride=(1, 1), padding=(1, 1), bias=False)
      (1): ReLU()
    )
    (12): BasicBlock(
      (0): Conv2d(64, 64, kernel_size=(3, 3), stride=(1, 1), padding=(1, 1), bias=False)
      (1): ReLU()
    )
    (13): BasicBlock(
      (0): Conv2d(64, 64, kernel_size=(3, 3), stride=(1, 1), padding=(1, 1), bias=False)
      (1): ReLU()
    )
    (14): BasicBlock(
      (0): Conv2d(64, 64, kernel_size=(3, 3), stride=(1, 1), padding=(1, 1), bias=False)
      (1): ReLU()
    )
  )
  (tail): Sequential(
    (0): Upsampler(
      (0): Conv2d(64, 256, kernel_size=(3, 3), stride=(1, 1), padding=(1, 1))
      (1): PixelShuffle(upscale_factor=2)
    )
    (1): Conv2d(64, 3, kernel_size=(3, 3), stride=(1, 1), padding=(1, 1))
  )
)
[Epoch 1]	Learning rate: 1.00e-4
[1600/16108]	[L1: 23.7730]	1.9+2.6s
[3200/16108]	[L1: 16.9764]	1.4+3.4s
[4800/16108]	[L1: 13.7155]	1.3+3.8s
[6400/16108]	[L1: 11.8729]	1.3+3.6s
[8000/16108]	[L1: 10.7365]	1.3+3.2s
[9600/16108]	[L1: 9.9347]	1.3+3.4s
[11200/16108]	[L1: 9.3426]	1.3+3.5s
[12800/16108]	[L1: 8.8772]	1.4+5.3s
[14400/16108]	[L1: 8.4941]	1.3+4.4s
…
