SRCNN_BASIC(
  (head): Sequential(
    (0): Conv2d(3, 64, kernel_size=(3, 3), stride=(1, 1), padding=(1, 1))
  )
  (body): Sequential(
    (0): BasicBlock(
      (0): Conv2d(64, 64, kernel_size=(3, 3), stride=(1, 1), padding=(1, 1), bias=False)
      (1): ReLU()
    )
    (1): BasicBlock(
      (0): Conv2d(64, 64, kernel_size=(3, 3), stride=(1, 1), padding=(1, 1), bias=False)
      (1): ReLU()
    )
    (2): BasicBlock(
      (0): Conv2d(64, 64, kernel_size=(3, 3), stride=(1, 1), padding=(1, 1), bias=False)
      (1): ReLU()
    )
    (3): BasicBlock(
      (0): Conv2d(64, 64, kernel_size=(3, 3), stride=(1, 1), padding=(1, 1), bias=False)
      (1): ReLU()
    )
    (4): BasicBlock(
      (0): Conv2d(64, 64, kernel_size=(3, 3), stride=(1, 1), padding=(1, 1), bias=False)
      (1): ReLU()
    )
    (5): BasicBlock(
      (0): Conv2d(64, 64, kernel_size=(3, 3), stride=(1, 1), padding=(1, 1), bias=False)
      (1): ReLU()
    )
    (6): BasicBlock(
      (0): Conv2d(64, 64, kernel_size=(3, 3), stride=(1, 1), padding=(1, 1), bias=False)
      (1): ReLU()
    )
  )
  (tail): Sequential(
    (0): Upsampler(
      (0): Conv2d(64, 256, kernel_size=(3, 3), stride=(1, 1), padding=(1, 1))
      (1): PixelShuffle(upscale_factor=2)
    )
    (1): Conv2d(64, 3, kernel_size=(3, 3), stride=(1, 1), padding=(1, 1))
  )
)
[Epoch 1]	Learning rate: 1.00e-4
[1600/16108]	[VGG54: 8.2032]	4.6+70.4s
[3200/16108]	[VGG54: 6.8238]	3.6+69.5s
[4800/16108]	[VGG54: 5.9198]	3.6+65.6s
[6400/16108]	[VGG54: 5.2892]	3.6+67.7s
[8000/16108]	[VGG54: 4.8450]	3.7+66.7s
[9600/16108]	[VGG54: 4.4699]	3.6+66.2s
[11200/16108]	[VGG54: 4.1850]	3.6+69.8s
[12800/16108]	[VGG54: 3.9641]	3.6+72.1s
…
