SRCNN_BASIC(
  (head): Sequential(
    (0): Conv2d(3, 64, kernel_size=(3, 3), stride=(1, 1), padding=(1, 1))
  )
  (body): Sequential(
    (0): BasicBlock(
      (0): Conv2d(64, 64, kernel_size=(3, 3), stride=(1, 1), padding=(1, 1), bias=False)
      (1): ReLU()
    )
    (1): BasicBlock(
      (0): Conv2d(64, 64, kernel_size=(3, 3), stride=(1, 1), padding=(1, 1), bias=False)
      (1): ReLU()
    )
    (2): BasicBlock(
      (0): Conv2d(64, 64, kernel_size=(3, 3), stride=(1, 1), padding=(1, 1), bias=False)
      (1): ReLU()
    )
    (3): BasicBlock(
      (0): Conv2d(64, 64, kernel_size=(3, 3), stride=(1, 1), padding=(1, 1), bias=False)
      (1): ReLU()
    )
    (4): BasicBlock(
      (0): Conv2d(64, 64, kernel_size=(3, 3), stride=(1, 1), padding=(1, 1), bias=False)
      (1): ReLU()
    )
    (5): BasicBlock(
      (0): Conv2d(64, 64, kernel_size=(3, 3), stride=(1, 1), padding=(1, 1), bias=False)
      (1): ReLU()
    )
    (6): BasicBlock(
      (0): Conv2d(64, 64, kernel_size=(3, 3), stride=(1, 1), padding=(1, 1), bias=False)
      (1): ReLU()
    )
  )
  (tail): Sequential(
    (0): Upsampler(
      (0): Conv2d(64, 256, kernel_size=(3, 3), stride=(1, 1), padding=(1, 1))
      (1): PixelShuffle(upscale_factor=2)
    )
    (1): Conv2d(64, 3, kernel_size=(3, 3), stride=(1, 1), padding=(1, 1))
  )
)
[Epoch 1]	Learning rate: 1.00e-4
[1600/16108]	[MSE: 1761.9130]	1.2+4.8s
[3200/16108]	[MSE: 1046.0414]	0.9+3.5s
[4800/16108]	[MSE: 756.2844]	0.8+2.6s
[6400/16108]	[MSE: 604.9309]	0.8+4.6s
[8000/16108]	[MSE: 511.0643]	0.8+3.5s
[9600/16108]	[MSE: 444.6434]	0.8+3.7s
[11200/16108]	[MSE: 396.9174]	0.8+3.8s
[12800/16108]	[MSE: 361.1111]	0.9+4.7s
…
