RCAN(
  (sub_mean): MeanShift(3, 3, kernel_size=(1, 1), stride=(1, 1))
  (add_mean): MeanShift(3, 3, kernel_size=(1, 1), stride=(1, 1))
  (head): Sequential(
    (0): Conv2d(3, 64, kernel_size=(3, 3), stride=(1, 1), padding=(1, 1))
  )
  (body): Sequential(
    (0): ResidualGroup(
      (body): Sequential(
        (0): RCAB(
          (body): Sequential(
            (0): Conv2d(64, 64, kernel_size=(3, 3), stride=(1, 1), padding=(1, 1))
            (1): ReLU(inplace=True)
            (2): Conv2d(64, 64, kernel_size=(3, 3), stride=(1, 1), padding=(1, 1))
            (3): CALayer(
              (avg_pool): AdaptiveAvgPool2d(output_size=1)
              (conv_du): Sequential(
                (0): Conv2d(64, 4, kernel_size=(1, 1), stride=(1, 1))
                (1): ReLU(inplace=True)
                (2): Conv2d(4, 64, kernel_size=(1, 1), stride=(1, 1))
                (3): Sigmoid()
              )
            )
          )
        )
        (1): RCAB(
          (body): Sequential(
            (0): Conv2d(64, 64, kernel_size=(3, 3), stride=(1, 1), padding=(1, 1))
            (1): ReLU(inplace=True)
            (2): Conv2d(64, 64, kernel_size=(3, 3), stride=(1, 1), padding=(1, 1))
            (3): CALayer(
              (avg_pool): AdaptiveAvgPool2d(output_size=1)
              (conv_du): Sequential(
                (0): Conv2d(64, 4, kernel_size=(1, 1), stride=(1, 1))
                (1): ReLU(inplace=True)
                (2): Conv2d(4, 64, kernel_size=(1, 1), stride=(1, 1))
                (3): Sigmoid()
              )
            )
          )
        )
        (2): RCAB(
          (body): Sequential(
            (0): Conv2d(64, 64, kernel_size=(3, 3), stride=(1, 1), padding=(1, 1))
            (1): ReLU(inplace=True)
            (2): Conv2d(64, 64, kernel_size=(3, 3), stride=(1, 1), padding=(1, 1))
            (3): CALayer(
              (avg_pool): AdaptiveAvgPool2d(output_size=1)
              (conv_du): Sequential(
                (0): Conv2d(64, 4, kernel_size=(1, 1), stride=(1, 1))
                (1): ReLU(inplace=True)
                (2): Conv2d(4, 64, kernel_size=(1, 1), stride=(1, 1))
                (3): Sigmoid()
              )
            )
          )
        )
        (3): RCAB(
          (body): Sequential(
            (0): Conv2d(64, 64, kernel_size=(3, 3), stride=(1, 1), padding=(1, 1))
            (1): ReLU(inplace=True)
            (2): Conv2d(64, 64, kernel_size=(3, 3), stride=(1, 1), padding=(1, 1))
            (3): CALayer(
              (avg_pool): AdaptiveAvgPool2d(output_size=1)
              (conv_du): Sequential(
                (0): Conv2d(64, 4, kernel_size=(1, 1), stride=(1, 1))
                (1): ReLU(inplace=True)
                (2): Conv2d(4, 64, kernel_size=(1, 1), stride=(1, 1))
                (3): Sigmoid()
              )
            )
          )
        )
        (4): Conv2d(64, 64, kernel_size=(3, 3), stride=(1, 1), padding=(1, 1))
      )
    )
    (1): ResidualGroup(
      (body): Sequential(
        (0): RCAB(
          (body): Sequential(
            (0): Conv2d(64, 64, kernel_size=(3, 3), stride=(1, 1), padding=(1, 1))
            (1): ReLU(inplace=True)
            (2): Conv2d(64, 64, kernel_size=(3, 3), stride=(1, 1), padding=(1, 1))
            (3): CALayer(
              (avg_pool): AdaptiveAvgPool2d(output_size=1)
              (conv_du): Sequential(
                (0): Conv2d(64, 4, kernel_size=(1, 1), stride=(1, 1))
                (1): ReLU(inplace=True)
                (2): Conv2d(4, 64, kernel_size=(1, 1), stride=(1, 1))
                (3): Sigmoid()
              )
            )
          )
        )
        (1): RCAB(
          (body): Sequential(
            (0): Conv2d(64, 64, kernel_size=(3, 3), stride=(1, 1), padding=(1, 1))
            (1): ReLU(inplace=True)
            (2): Conv2d(64, 64, kernel_size=(3, 3), stride=(1, 1), padding=(1, 1))
            (3): CALayer(
              (avg_pool): AdaptiveAvgPool2d(output_size=1)
              (conv_du): Sequential(
                (0): Conv2d(64, 4, kernel_size=(1, 1), stride=(1, 1))
                (1): ReLU(inplace=True)
                (2): Conv2d(4, 64, kernel_size=(1, 1), stride=(1, 1))
                (3): Sigmoid()
              )
            )
          )
        )
        (2): RCAB(
          (body): Sequential(
            (0): Conv2d(64, 64, kernel_size=(3, 3), stride=(1, 1), padding=(1, 1))
            (1): ReLU(inplace=True)
            (2): Conv2d(64, 64, kernel_size=(3, 3), stride=(1, 1), padding=(1, 1))
            (3): CALayer(
              (avg_pool): AdaptiveAvgPool2d(output_size=1)
              (conv_du): Sequential(
                (0): Conv2d(64, 4, kernel_size=(1, 1), stride=(1, 1))
                (1): ReLU(inplace=True)
                (2): Conv2d(4, 64, kernel_size=(1, 1), stride=(1, 1))
                (3): Sigmoid()
              )
            )
          )
        )
        (3): RCAB(
          (body): Sequential(
            (0): Conv2d(64, 64, kernel_size=(3, 3), stride=(1, 1), padding=(1, 1))
            (1): ReLU(inplace=True)
            (2): Conv2d(64, 64, kernel_size=(3, 3), stride=(1, 1), padding=(1, 1))
            (3): CALayer(
              (avg_pool): AdaptiveAvgPool2d(output_size=1)
              (conv_du): Sequential(
                (0): Conv2d(64, 4, kernel_size=(1, 1), stride=(1, 1))
                (1): ReLU(inplace=True)
                (2): Conv2d(4, 64, kernel_size=(1, 1), stride=(1, 1))
                (3): Sigmoid()
              )
            )
          )
        )
        (4): Conv2d(64, 64, kernel_size=(3, 3), stride=(1, 1), padding=(1, 1))
      )
    )
    (2): ResidualGroup(
      (body): Sequential(
        (0): RCAB(
          (body): Sequential(
            (0): Conv2d(64, 64, kernel_size=(3, 3), stride=(1, 1), padding=(1, 1))
            (1): ReLU(inplace=True)
            (2): Conv2d(64, 64, kernel_size=(3, 3), stride=(1, 1), padding=(1, 1))
            (3): CALayer(
              (avg_pool): AdaptiveAvgPool2d(output_size=1)
              (conv_du): Sequential(
                (0): Conv2d(64, 4, kernel_size=(1, 1), stride=(1, 1))
                (1): ReLU(inplace=True)
                (2): Conv2d(4, 64, kernel_size=(1, 1), stride=(1, 1))
                (3): Sigmoid()
              )
            )
          )
        )
        (1): RCAB(
          (body): Sequential(
            (0): Conv2d(64, 64, kernel_size=(3, 3), stride=(1, 1), padding=(1, 1))
            (1): ReLU(inplace=True)
            (2): Conv2d(64, 64, kernel_size=(3, 3), stride=(1, 1), padding=(1, 1))
            (3): CALayer(
              (avg_pool): AdaptiveAvgPool2d(output_size=1)
              (conv_du): Sequential(
                (0): Conv2d(64, 4, kernel_size=(1, 1), stride=(1, 1))
                (1): ReLU(inplace=True)
                (2): Conv2d(4, 64, kernel_size=(1, 1), stride=(1, 1))
                (3): Sigmoid()
              )
            )
          )
        )
        (2): RCAB(
          (body): Sequential(
            (0): Conv2d(64, 64, kernel_size=(3, 3), stride=(1, 1), padding=(1, 1))
            (1): ReLU(inplace=True)
            (2): Conv2d(64, 64, kernel_size=(3, 3), stride=(1, 1), padding=(1, 1))
            (3): CALayer(
              (avg_pool): AdaptiveAvgPool2d(output_size=1)
              (conv_du): Sequential(
                (0): Conv2d(64, 4, kernel_size=(1, 1), stride=(1, 1))
                (1): ReLU(inplace=True)
                (2): Conv2d(4, 64, kernel_size=(1, 1), stride=(1, 1))
                (3): Sigmoid()
              )
            )
          )
        )
        (3): RCAB(
          (body): Sequential(
            (0): Conv2d(64, 64, kernel_size=(3, 3), stride=(1, 1), padding=(1, 1))
            (1): ReLU(inplace=True)
            (2): Conv2d(64, 64, kernel_size=(3, 3), stride=(1, 1), padding=(1, 1))
            (3): CALayer(
              (avg_pool): AdaptiveAvgPool2d(output_size=1)
              (conv_du): Sequential(
                (0): Conv2d(64, 4, kernel_size=(1, 1), stride=(1, 1))
                (1): ReLU(inplace=True)
                (2): Conv2d(4, 64, kernel_size=(1, 1), stride=(1, 1))
                (3): Sigmoid()
              )
            )
          )
        )
        (4): Conv2d(64, 64, kernel_size=(3, 3), stride=(1, 1), padding=(1, 1))
      )
    )
    (3): ResidualGroup(
      (body): Sequential(
        (0): RCAB(
          (body): Sequential(
            (0): Conv2d(64, 64, kernel_size=(3, 3), stride=(1, 1), padding=(1, 1))
            (1): ReLU(inplace=True)
            (2): Conv2d(64, 64, kernel_size=(3, 3), stride=(1, 1), padding=(1, 1))
            (3): CALayer(
              (avg_pool): AdaptiveAvgPool2d(output_size=1)
              (conv_du): Sequential(
                (0): Conv2d(64, 4, kernel_size=(1, 1), stride=(1, 1))
                (1): ReLU(inplace=True)
                (2): Conv2d(4, 64, kernel_size=(1, 1), stride=(1, 1))
                (3): Sigmoid()
              )
            )
          )
        )
        (1): RCAB(
          (body): Sequential(
            (0): Conv2d(64, 64, kernel_size=(3, 3), stride=(1, 1), padding=(1, 1))
            (1): ReLU(inplace=True)
            (2): Conv2d(64, 64, kernel_size=(3, 3), stride=(1, 1), padding=(1, 1))
            (3): CALayer(
              (avg_pool): AdaptiveAvgPool2d(output_size=1)
              (conv_du): Sequential(
                (0): Conv2d(64, 4, kernel_size=(1, 1), stride=(1, 1))
                (1): ReLU(inplace=True)
                (2): Conv2d(4, 64, kernel_size=(1, 1), stride=(1, 1))
                (3): Sigmoid()
              )
            )
          )
        )
        (2): RCAB(
          (body): Sequential(
            (0): Conv2d(64, 64, kernel_size=(3, 3), stride=(1, 1), padding=(1, 1))
            (1): ReLU(inplace=True)
            (2): Conv2d(64, 64, kernel_size=(3, 3), stride=(1, 1), padding=(1, 1))
            (3): CALayer(
              (avg_pool): AdaptiveAvgPool2d(output_size=1)
              (conv_du): Sequential(
                (0): Conv2d(64, 4, kernel_size=(1, 1), stride=(1, 1))
                (1): ReLU(inplace=True)
                (2): Conv2d(4, 64, kernel_size=(1, 1), stride=(1, 1))
                (3): Sigmoid()
              )
            )
          )
        )
        (3): RCAB(
          (body): Sequential(
            (0): Conv2d(64, 64, kernel_size=(3, 3), stride=(1, 1), padding=(1, 1))
            (1): ReLU(inplace=True)
            (2): Conv2d(64, 64, kernel_size=(3, 3), stride=(1, 1), padding=(1, 1))
            (3): CALayer(
              (avg_pool): AdaptiveAvgPool2d(output_size=1)
              (conv_du): Sequential(
                (0): Conv2d(64, 4, kernel_size=(1, 1), stride=(1, 1))
                (1): ReLU(inplace=True)
                (2): Conv2d(4, 64, kernel_size=(1, 1), stride=(1, 1))
                (3): Sigmoid()
              )
            )
          )
        )
        (4): Conv2d(64, 64, kernel_size=(3, 3), stride=(1, 1), padding=(1, 1))
      )
    )
    (4): ResidualGroup(
      (body): Sequential(
        (0): RCAB(
          (body): Sequential(
            (0): Conv2d(64, 64, kernel_size=(3, 3), stride=(1, 1), padding=(1, 1))
            (1): ReLU(inplace=True)
            (2): Conv2d(64, 64, kernel_size=(3, 3), stride=(1, 1), padding=(1, 1))
            (3): CALayer(
              (avg_pool): AdaptiveAvgPool2d(output_size=1)
              (conv_du): Sequential(
                (0): Conv2d(64, 4, kernel_size=(1, 1), stride=(1, 1))
                (1): ReLU(inplace=True)
                (2): Conv2d(4, 64, kernel_size=(1, 1), stride=(1, 1))
                (3): Sigmoid()
              )
            )
          )
        )
        (1): RCAB(
          (body): Sequential(
            (0): Conv2d(64, 64, kernel_size=(3, 3), stride=(1, 1), padding=(1, 1))
            (1): ReLU(inplace=True)
            (2): Conv2d(64, 64, kernel_size=(3, 3), stride=(1, 1), padding=(1, 1))
            (3): CALayer(
              (avg_pool): AdaptiveAvgPool2d(output_size=1)
              (conv_du): Sequential(
                (0): Conv2d(64, 4, kernel_size=(1, 1), stride=(1, 1))
                (1): ReLU(inplace=True)
                (2): Conv2d(4, 64, kernel_size=(1, 1), stride=(1, 1))
                (3): Sigmoid()
              )
            )
          )
        )
        (2): RCAB(
          (body): Sequential(
            (0): Conv2d(64, 64, kernel_size=(3, 3), stride=(1, 1), padding=(1, 1))
            (1): ReLU(inplace=True)
            (2): Conv2d(64, 64, kernel_size=(3, 3), stride=(1, 1), padding=(1, 1))
            (3): CALayer(
              (avg_pool): AdaptiveAvgPool2d(output_size=1)
              (conv_du): Sequential(
                (0): Conv2d(64, 4, kernel_size=(1, 1), stride=(1, 1))
                (1): ReLU(inplace=True)
                (2): Conv2d(4, 64, kernel_size=(1, 1), stride=(1, 1))
                (3): Sigmoid()
              )
            )
          )
        )
        (3): RCAB(
          (body): Sequential(
            (0): Conv2d(64, 64, kernel_size=(3, 3), stride=(1, 1), padding=(1, 1))
            (1): ReLU(inplace=True)
            (2): Conv2d(64, 64, kernel_size=(3, 3), stride=(1, 1), padding=(1, 1))
            (3): CALayer(
              (avg_pool): AdaptiveAvgPool2d(output_size=1)
              (conv_du): Sequential(
                (0): Conv2d(64, 4, kernel_size=(1, 1), stride=(1, 1))
                (1): ReLU(inplace=True)
                (2): Conv2d(4, 64, kernel_size=(1, 1), stride=(1, 1))
                (3): Sigmoid()
              )
            )
          )
        )
        (4): Conv2d(64, 64, kernel_size=(3, 3), stride=(1, 1), padding=(1, 1))
      )
    )
    (5): ResidualGroup(
      (body): Sequential(
        (0): RCAB(
          (body): Sequential(
            (0): Conv2d(64, 64, kernel_size=(3, 3), stride=(1, 1), padding=(1, 1))
            (1): ReLU(inplace=True)
            (2): Conv2d(64, 64, kernel_size=(3, 3), stride=(1, 1), padding=(1, 1))
            (3): CALayer(
              (avg_pool): AdaptiveAvgPool2d(output_size=1)
              (conv_du): Sequential(
                (0): Conv2d(64, 4, kernel_size=(1, 1), stride=(1, 1))
                (1): ReLU(inplace=True)
                (2): Conv2d(4, 64, kernel_size=(1, 1), stride=(1, 1))
                (3): Sigmoid()
              )
            )
          )
        )
        (1): RCAB(
          (body): Sequential(
            (0): Conv2d(64, 64, kernel_size=(3, 3), stride=(1, 1), padding=(1, 1))
            (1): ReLU(inplace=True)
            (2): Conv2d(64, 64, kernel_size=(3, 3), stride=(1, 1), padding=(1, 1))
            (3): CALayer(
              (avg_pool): AdaptiveAvgPool2d(output_size=1)
              (conv_du): Sequential(
                (0): Conv2d(64, 4, kernel_size=(1, 1), stride=(1, 1))
                (1): ReLU(inplace=True)
                (2): Conv2d(4, 64, kernel_size=(1, 1), stride=(1, 1))
                (3): Sigmoid()
              )
            )
          )
        )
        (2): RCAB(
          (body): Sequential(
            (0): Conv2d(64, 64, kernel_size=(3, 3), stride=(1, 1), padding=(1, 1))
            (1): ReLU(inplace=True)
            (2): Conv2d(64, 64, kernel_size=(3, 3), stride=(1, 1), padding=(1, 1))
            (3): CALayer(
              (avg_pool): AdaptiveAvgPool2d(output_size=1)
              (conv_du): Sequential(
                (0): Conv2d(64, 4, kernel_size=(1, 1), stride=(1, 1))
                (1): ReLU(inplace=True)
                (2): Conv2d(4, 64, kernel_size=(1, 1), stride=(1, 1))
                (3): Sigmoid()
              )
            )
          )
        )
        (3): RCAB(
          (body): Sequential(
            (0): Conv2d(64, 64, kernel_size=(3, 3), stride=(1, 1), padding=(1, 1))
            (1): ReLU(inplace=True)
            (2): Conv2d(64, 64, kernel_size=(3, 3), stride=(1, 1), padding=(1, 1))
            (3): CALayer(
              (avg_pool): AdaptiveAvgPool2d(output_size=1)
              (conv_du): Sequential(
                (0): Conv2d(64, 4, kernel_size=(1, 1), stride=(1, 1))
                (1): ReLU(inplace=True)
                (2): Conv2d(4, 64, kernel_size=(1, 1), stride=(1, 1))
                (3): Sigmoid()
              )
            )
          )
        )
        (4): Conv2d(64, 64, kernel_size=(3, 3), stride=(1, 1), padding=(1, 1))
      )
    )
    (6): ResidualGroup(
      (body): Sequential(
        (0): RCAB(
          (body): Sequential(
            (0): Conv2d(64, 64, kernel_size=(3, 3), stride=(1, 1), padding=(1, 1))
            (1): ReLU(inplace=True)
            (2): Conv2d(64, 64, kernel_size=(3, 3), stride=(1, 1), padding=(1, 1))
            (3): CALayer(
              (avg_pool): AdaptiveAvgPool2d(output_size=1)
              (conv_du): Sequential(
                (0): Conv2d(64, 4, kernel_size=(1, 1), stride=(1, 1))
                (1): ReLU(inplace=True)
                (2): Conv2d(4, 64, kernel_size=(1, 1), stride=(1, 1))
                (3): Sigmoid()
              )
            )
          )
        )
        (1): RCAB(
          (body): Sequential(
            (0): Conv2d(64, 64, kernel_size=(3, 3), stride=(1, 1), padding=(1, 1))
            (1): ReLU(inplace=True)
            (2): Conv2d(64, 64, kernel_size=(3, 3), stride=(1, 1), padding=(1, 1))
            (3): CALayer(
              (avg_pool): AdaptiveAvgPool2d(output_size=1)
              (conv_du): Sequential(
                (0): Conv2d(64, 4, kernel_size=(1, 1), stride=(1, 1))
                (1): ReLU(inplace=True)
                (2): Conv2d(4, 64, kernel_size=(1, 1), stride=(1, 1))
                (3): Sigmoid()
              )
            )
          )
        )
        (2): RCAB(
          (body): Sequential(
            (0): Conv2d(64, 64, kernel_size=(3, 3), stride=(1, 1), padding=(1, 1))
            (1): ReLU(inplace=True)
            (2): Conv2d(64, 64, kernel_size=(3, 3), stride=(1, 1), padding=(1, 1))
            (3): CALayer(
              (avg_pool): AdaptiveAvgPool2d(output_size=1)
              (conv_du): Sequential(
                (0): Conv2d(64, 4, kernel_size=(1, 1), stride=(1, 1))
                (1): ReLU(inplace=True)
                (2): Conv2d(4, 64, kernel_size=(1, 1), stride=(1, 1))
                (3): Sigmoid()
              )
            )
          )
        )
        (3): RCAB(
          (body): Sequential(
            (0): Conv2d(64, 64, kernel_size=(3, 3), stride=(1, 1), padding=(1, 1))
            (1): ReLU(inplace=True)
            (2): Conv2d(64, 64, kernel_size=(3, 3), stride=(1, 1), padding=(1, 1))
            (3): CALayer(
              (avg_pool): AdaptiveAvgPool2d(output_size=1)
              (conv_du): Sequential(
                (0): Conv2d(64, 4, kernel_size=(1, 1), stride=(1, 1))
                (1): ReLU(inplace=True)
                (2): Conv2d(4, 64, kernel_size=(1, 1), stride=(1, 1))
                (3): Sigmoid()
              )
            )
          )
        )
        (4): Conv2d(64, 64, kernel_size=(3, 3), stride=(1, 1), padding=(1, 1))
      )
    )
    (7): ResidualGroup(
      (body): Sequential(
        (0): RCAB(
          (body): Sequential(
            (0): Conv2d(64, 64, kernel_size=(3, 3), stride=(1, 1), padding=(1, 1))
            (1): ReLU(inplace=True)
            (2): Conv2d(64, 64, kernel_size=(3, 3), stride=(1, 1), padding=(1, 1))
            (3): CALayer(
              (avg_pool): AdaptiveAvgPool2d(output_size=1)
              (conv_du): Sequential(
                (0): Conv2d(64, 4, kernel_size=(1, 1), stride=(1, 1))
                (1): ReLU(inplace=True)
                (2): Conv2d(4, 64, kernel_size=(1, 1), stride=(1, 1))
                (3): Sigmoid()
              )
            )
          )
        )
        (1): RCAB(
          (body): Sequential(
            (0): Conv2d(64, 64, kernel_size=(3, 3), stride=(1, 1), padding=(1, 1))
            (1): ReLU(inplace=True)
            (2): Conv2d(64, 64, kernel_size=(3, 3), stride=(1, 1), padding=(1, 1))
            (3): CALayer(
              (avg_pool): AdaptiveAvgPool2d(output_size=1)
              (conv_du): Sequential(
                (0): Conv2d(64, 4, kernel_size=(1, 1), stride=(1, 1))
                (1): ReLU(inplace=True)
                (2): Conv2d(4, 64, kernel_size=(1, 1), stride=(1, 1))
                (3): Sigmoid()
              )
            )
          )
        )
        (2): RCAB(
          (body): Sequential(
            (0): Conv2d(64, 64, kernel_size=(3, 3), stride=(1, 1), padding=(1, 1))
            (1): ReLU(inplace=True)
            (2): Conv2d(64, 64, kernel_size=(3, 3), stride=(1, 1), padding=(1, 1))
            (3): CALayer(
              (avg_pool): AdaptiveAvgPool2d(output_size=1)
              (conv_du): Sequential(
                (0): Conv2d(64, 4, kernel_size=(1, 1), stride=(1, 1))
                (1): ReLU(inplace=True)
                (2): Conv2d(4, 64, kernel_size=(1, 1), stride=(1, 1))
                (3): Sigmoid()
              )
            )
          )
        )
        (3): RCAB(
          (body): Sequential(
            (0): Conv2d(64, 64, kernel_size=(3, 3), stride=(1, 1), padding=(1, 1))
            (1): ReLU(inplace=True)
            (2): Conv2d(64, 64, kernel_size=(3, 3), stride=(1, 1), padding=(1, 1))
            (3): CALayer(
              (avg_pool): AdaptiveAvgPool2d(output_size=1)
              (conv_du): Sequential(
                (0): Conv2d(64, 4, kernel_size=(1, 1), stride=(1, 1))
                (1): ReLU(inplace=True)
                (2): Conv2d(4, 64, kernel_size=(1, 1), stride=(1, 1))
                (3): Sigmoid()
              )
            )
          )
        )
        (4): Conv2d(64, 64, kernel_size=(3, 3), stride=(1, 1), padding=(1, 1))
      )
    )
    (8): ResidualGroup(
      (body): Sequential(
        (0): RCAB(
          (body): Sequential(
            (0): Conv2d(64, 64, kernel_size=(3, 3), stride=(1, 1), padding=(1, 1))
            (1): ReLU(inplace=True)
            (2): Conv2d(64, 64, kernel_size=(3, 3), stride=(1, 1), padding=(1, 1))
            (3): CALayer(
              (avg_pool): AdaptiveAvgPool2d(output_size=1)
              (conv_du): Sequential(
                (0): Conv2d(64, 4, kernel_size=(1, 1), stride=(1, 1))
                (1): ReLU(inplace=True)
                (2): Conv2d(4, 64, kernel_size=(1, 1), stride=(1, 1))
                (3): Sigmoid()
              )
            )
          )
        )
        (1): RCAB(
          (body): Sequential(
            (0): Conv2d(64, 64, kernel_size=(3, 3), stride=(1, 1), padding=(1, 1))
            (1): ReLU(inplace=True)
            (2): Conv2d(64, 64, kernel_size=(3, 3), stride=(1, 1), padding=(1, 1))
            (3): CALayer(
              (avg_pool): AdaptiveAvgPool2d(output_size=1)
              (conv_du): Sequential(
                (0): Conv2d(64, 4, kernel_size=(1, 1), stride=(1, 1))
                (1): ReLU(inplace=True)
                (2): Conv2d(4, 64, kernel_size=(1, 1), stride=(1, 1))
                (3): Sigmoid()
              )
            )
          )
        )
        (2): RCAB(
          (body): Sequential(
            (0): Conv2d(64, 64, kernel_size=(3, 3), stride=(1, 1), padding=(1, 1))
            (1): ReLU(inplace=True)
            (2): Conv2d(64, 64, kernel_size=(3, 3), stride=(1, 1), padding=(1, 1))
            (3): CALayer(
              (avg_pool): AdaptiveAvgPool2d(output_size=1)
              (conv_du): Sequential(
                (0): Conv2d(64, 4, kernel_size=(1, 1), stride=(1, 1))
                (1): ReLU(inplace=True)
                (2): Conv2d(4, 64, kernel_size=(1, 1), stride=(1, 1))
                (3): Sigmoid()
              )
            )
          )
        )
        (3): RCAB(
          (body): Sequential(
            (0): Conv2d(64, 64, kernel_size=(3, 3), stride=(1, 1), padding=(1, 1))
            (1): ReLU(inplace=True)
            (2): Conv2d(64, 64, kernel_size=(3, 3), stride=(1, 1), padding=(1, 1))
            (3): CALayer(
              (avg_pool): AdaptiveAvgPool2d(output_size=1)
              (conv_du): Sequential(
                (0): Conv2d(64, 4, kernel_size=(1, 1), stride=(1, 1))
                (1): ReLU(inplace=True)
                (2): Conv2d(4, 64, kernel_size=(1, 1), stride=(1, 1))
                (3): Sigmoid()
              )
            )
          )
        )
        (4): Conv2d(64, 64, kernel_size=(3, 3), stride=(1, 1), padding=(1, 1))
      )
    )
    (9): ResidualGroup(
      (body): Sequential(
        (0): RCAB(
          (body): Sequential(
            (0): Conv2d(64, 64, kernel_size=(3, 3), stride=(1, 1), padding=(1, 1))
            (1): ReLU(inplace=True)
            (2): Conv2d(64, 64, kernel_size=(3, 3), stride=(1, 1), padding=(1, 1))
            (3): CALayer(
              (avg_pool): AdaptiveAvgPool2d(output_size=1)
              (conv_du): Sequential(
                (0): Conv2d(64, 4, kernel_size=(1, 1), stride=(1, 1))
                (1): ReLU(inplace=True)
                (2): Conv2d(4, 64, kernel_size=(1, 1), stride=(1, 1))
                (3): Sigmoid()
              )
            )
          )
        )
        (1): RCAB(
          (body): Sequential(
            (0): Conv2d(64, 64, kernel_size=(3, 3), stride=(1, 1), padding=(1, 1))
            (1): ReLU(inplace=True)
            (2): Conv2d(64, 64, kernel_size=(3, 3), stride=(1, 1), padding=(1, 1))
            (3): CALayer(
              (avg_pool): AdaptiveAvgPool2d(output_size=1)
              (conv_du): Sequential(
                (0): Conv2d(64, 4, kernel_size=(1, 1), stride=(1, 1))
                (1): ReLU(inplace=True)
                (2): Conv2d(4, 64, kernel_size=(1, 1), stride=(1, 1))
                (3): Sigmoid()
              )
            )
          )
        )
        (2): RCAB(
          (body): Sequential(
            (0): Conv2d(64, 64, kernel_size=(3, 3), stride=(1, 1), padding=(1, 1))
            (1): ReLU(inplace=True)
            (2): Conv2d(64, 64, kernel_size=(3, 3), stride=(1, 1), padding=(1, 1))
            (3): CALayer(
              (avg_pool): AdaptiveAvgPool2d(output_size=1)
              (conv_du): Sequential(
                (0): Conv2d(64, 4, kernel_size=(1, 1), stride=(1, 1))
                (1): ReLU(inplace=True)
                (2): Conv2d(4, 64, kernel_size=(1, 1), stride=(1, 1))
                (3): Sigmoid()
              )
            )
          )
        )
        (3): RCAB(
          (body): Sequential(
            (0): Conv2d(64, 64, kernel_size=(3, 3), stride=(1, 1), padding=(1, 1))
            (1): ReLU(inplace=True)
            (2): Conv2d(64, 64, kernel_size=(3, 3), stride=(1, 1), padding=(1, 1))
            (3): CALayer(
              (avg_pool): AdaptiveAvgPool2d(output_size=1)
              (conv_du): Sequential(
                (0): Conv2d(64, 4, kernel_size=(1, 1), stride=(1, 1))
                (1): ReLU(inplace=True)
                (2): Conv2d(4, 64, kernel_size=(1, 1), stride=(1, 1))
                (3): Sigmoid()
              )
            )
          )
        )
        (4): Conv2d(64, 64, kernel_size=(3, 3), stride=(1, 1), padding=(1, 1))
      )
    )
    (10): Conv2d(64, 64, kernel_size=(3, 3), stride=(1, 1), padding=(1, 1))
  )
  (tail): Sequential(
    (0): Upsampler(
      (0): Conv2d(64, 256, kernel_size=(3, 3), stride=(1, 1), padding=(1, 1))
      (1): PixelShuffle(upscale_factor=2)
    )
    (1): Conv2d(64, 3, kernel_size=(3, 3), stride=(1, 1), padding=(1, 1))
  )
)
[Epoch 1]	Learning rate: 1.00e-4
[1600/32208]	[L1: 12.6535]	52.6+0.7s
[3200/32208]	[L1: 9.8898]	52.7+0.1s
[4800/32208]	[L1: 8.6483]	53.5+0.1s
[6400/32208]	[L1: 7.8209]	53.5+0.1s
[8000/32208]	[L1: 7.2903]	53.4+0.1s
[9600/32208]	[L1: 6.9261]	53.5+0.1s
[11200/32208]	[L1: 6.6496]	53.2+0.1s
[12800/32208]	[L1: 6.4153]	53.5+0.1s
[14400/32208]	[L1: 6.2319]	53.6+0.1s
…
